model/W1.npy (npy, 800128 bytes, 1 tensors)

array f8 [10, 10000]
-0.07984346504530648 0.09126216014531907 0.2610755183807094 -0.13073484388588497 0.06433566625414189 0.3093307898675842 -0.3025214344077324 0.012678759041269472
0.013861889819709261 0.24684834485022977 0.03280287633433654 -0.32256258249691516 -0.26593946453617456 0.16569047032823547 -0.4519581402838768 0.13689377281060444
0.27755104913309925 0.014113243211999582 -0.26926796228767635 -0.17164731711901482 0.23570748511199058 -0.25761748823854214 -0.11742378205769222 0.28116781802377133
0.09265771698948777 0.21151661841466007 0.38228001407222767 -0.1868401327357042 0.09036917457806615 0.27342375519842155 0.322785305854283 0.25810146629141295
-0.07204734302737414 -0.0902127397740643 0.4952672443767838 -0.12276942255615175 0.2739449517135719 -0.4278114940224377 -0.14256047021440066 0.2863257337487207
0.04523292547636293 -0.35353261559221927 0.04855770163713269 -0.13452713951688555 -0.38255420637813653 -0.4207613604079937 0.2243790252344272 0.03538294753680338
0.07355184725595221 0.33638540883694223 -0.4286301294648365 -0.29342948284867276 -0.2252223572010642 0.45640676787268875 -0.2833142714159014 -0.3794435567593144
0.17800783991335634 -0.2081894644267006 -0.07530911224148906 -0.37833985385328306 -0.22170205974498547 -0.4364099552300338 0.23810030664513793 0.13524491354618629
-0.4916224492519895 -0.1047635295665238 0.3107083115523518 -0.29374224962951667 0.05819815653141869 -0.11889900461956837 -0.35346567479189717 -0.35465390760941873
0.4945860555763183 0.4188556714968116 0.0568859020539314 -0.014426849454880264 -0.23353827504704217 -0.44264909837616573 0.16158184709781942 0.3168571348504816
-0.45818362461011486 -0.057539219568579325 -0.025024926219852528 -0.04240860511880595 0.14643125589096206 0.20438502989746554 0.09646506124034193 -0.020466323880992898
0.384373163811216 0.05443286660276925 -0.3107464227605028 0.11600144323461847 -0.07942090987833184 -0.3346762495730068 0.14536675259178378 -0.2744509279928766
-0.14986045840009443 -0.3327821256996223 -0.2553404323636278 -0.2499691004056871 0.291587276034188 -0.3746436546647147 -0.1298183656784967 0.3380635519516063
0.35676940292905 -0.17549714474875522 0.45449546207518055 0.4726040756254051 -0.49807815005884704 0.17164692543727667 -0.39160313729677776 0.07418634375845401
-0.323371076203388 0.21002193150917658 -0.25983329061491656 0.4778851024968296 -0.38361313391331275 0.3400744986828781 0.1215981088722623 0.18403246922516936
0.14709816581750712 -0.12456231083496416 0.4364472048410071 -0.2121366648161056 -0.3176976098362009 -0.1122524354067389 -0.21390891459595462 -0.0001604582181240488
-0.18923303015588389 0.03497132842334805 0.03180092990814709 -0.2330912338151907 -0.06857087943306717 -0.13986468556594633 0.13481829756830743 -0.1265195237019049
0.07039861326667496 0.4417319787795979 -0.19372210241734877 -0.013926993626126705 -0.05387666177694905 -0.18750886494822072 0.10913821365962861 -0.22078496988770901
0.23871947201928279 0.06327419914393839 0.251559904426777 0.19652904567355833 0.32765664447253073 -0.23955429765068514 0.17237381308663935 -0.21727962980193072
-0.06888211341336126 -0.11193010400734282 0.19765870167240807 0.11269659328829307 0.3314692688384562 -0.34025702039867955 0.00951250766796341 0.18364867436578314
-0.23653384281117562 0.28470082077329084 -0.3510763887369768 -0.3377489743230435 0.22056248089616648 -0.3585656547674151 -0.39215778500521603 0.1500954708690566
-0.3944693564864892 0.021317630769289164 -0.22571170066969892 0.20571092281470527 0.41968071164948917 0.31312412868357586 0.3252182334828898 -0.4758047828543417
0.1789902184933415 -0.01801601659064478 0.486297014948876 0.4042772190626427 0.4027899743751988 0.14619845972063028 0.3319716439168081 0.308918493517063
-0.26731529327968684 -0.04934877377009472 -0.053007825083678406 0.2782810531956058 -0.4505570176979389 -0.2895068092539941 0.36010289559596886 0.15882844899938708
-0.03294023486006126 -0.12375870532713218 0.20910436195509696 -0.11009398510274482 -0.12725612472465886 0.04154447179138043 0.13394896194564454 0.3137097460949999
-0.4178643865108619 0.0915433467716188 0.24920532067735424 0.22943934318279235 0.016418492787364514 0.14845917658246077 0.32103344615930807 0.48412218621688585
-0.3655591859182624 0.3664996197491557 0.21164896382469556 0.2010080032128485 -0.08704656767441543 -0.17807248775754658 0.024706741077022087 0.16392575286001132
-0.2863701501412593 0.2840655724709057 -0.1361124820624514 -0.44151421880506236 0.26155421970850634 0.17481727251705403 0.03503434289404217 -0.22701719835600442
-0.21971447089376261 -0.3143492312721564 0.1489457731245185 -0.19247933668741446 0.24233956920367716 0.28790050111560983 -0.4869384459343802 -0.3074623623305539
0.35695865573737506 -0.44239751142684314 -0.1709288472621452 -0.09202495580178593 -0.15025383727918273 -0.32962800120214053 -0.018786096146385378 -0.485235645165606
-0.23117291079081104 -0.3509239245754133 0.37700642518233085 0.373499937993919 0.44001556105756867 -0.3199433094119907 -0.213966207224367 0.1657601227617327
-0.17047251482071768 -0.22433403358783488 0.41706851578325643 -0.10392041266898999 -0.437696066215294 -0.08507705177541092 0.17844763575530798 -0.4449866369979768
00000000: b83d 2b0f 9f70 b4bf d8bb 2ff9 f45c b73f
00000010: 28cf 4e17 76b5 d03f 5c01 785b ebbb c0bf
00000020: 2025 875e 4d78 b03f c622 885e 13cc d33f
00000030: aeb1 c7dc 825c d3bf c02a 7d3b 52f7 893f
00000040: c0c2 7d5b 9f63 8c3f 340b 1a00 ba98 cf3f
00000050: d033 24e2 89cb a03f 1034 af87 dda4 d4bf
00000060: 0483 b9f5 2605 d1bf dcc8 a867 5835 c53f
00000070: e888 ebd5 e1ec dcbf 5cb1 9f32 bc85 c13f
00000080: 50d1 bf79 65c3 d13f 40cb 4970 67e7 8c3f
00000090: 60b6 f8b0 af3b d1bf a474 bc0e 8af8 c5bf
000000a0: 6c3c fdb1 a92b ce3f 562e b70f ce7c d0bf
000000b0: 10de b527 7c0f bebf c062 c64d a7fe d13f
000000c0: a01e 3188 6ab8 b73f 9463 53ff f912 cb3f
000000d0: 62b2 9697 4677 d83f 1c0f d7a1 60ea c7bf
000000e0: 601a 6129 6f22 b73f f4b5 a159 c67f d13f
000000f0: 1281 11b3 83a8 d43f 685c 3103 bc84 d03f
00000100: c8f6 10d6 b171 b2bf 381d 039f 2e18 b7bf
00000110: 8036 5862 75b2 df3f 80d5 d31e d16d bfbf
00000120: dce6 2068 5088 d13f 2679 eb75 4361 dbbf
00000130: 4cf9 a2e6 6b3f c2bf aa0d 9d2b 2953 d23f
00000140: 302c 3f1f c528 a73f 4e6d 8243 47a0 d6bf
00000150: d035 0019 8edc a83f 4421 5370 2f38 c1bf
00000160: 5ed8 55a3 c47b d8bf fedb 970e c1ed dabf
00000170: 0c26 a5af 73b8 cc3f 3068 03b5 b61d a23f
00000180: e052 863a 4bd4 b23f b499 73aa 5687 d53f
00000190: 146e 0811 ad6e dbbf 801a 2174 8cc7 d2bf
000001a0: 4cd8 4011 16d4 ccbf b6eb 6bbb c435 dd3f
000001b0: d42a 8e2e d221 d2bf 2063 bda0 cd48 d8bf
000001c0: 1403 6efd f5c8 c63f c0ce 8ace f3a5 cabf
000001d0: 5001 2b3e 7547 b3bf 76b0 c45c b836 d8bf
000001e0: 20c0 07ac bb60 ccbf 0c28 5705 24ee dbbf
000001f0: 20ae 1a23 127a ce3f bccb 5090 b44f c13f
00000200: da11 6101 be76 dfbf 683f 4d5d c8d1 babf
00000210: 5e9d 2d1d a5e2 d33f fa2e e74a accc d2bf
00000220: 60d8 fa15 26cc ad3f 3035 5e48 2a70 bebf
00000230: 6458 5f7e 2e9f d6bf 1230 a54d a6b2 d6bf
00000240: da81 7045 4ca7 df3f ceaa b404 88ce da3f
00000250: 00a6 d921 2620 ad3f 8084 bef4 d28b 8dbf
00000260: 7c7c d80a 95e4 cdbf 084a 48e2 5c54 dcbf
00000270: c0c9 74c6 b6ae c43f 20f9 eb25 6347 d43f
00000280: 02d8 d068 e152 ddbf 609e 91d4 c775 adbf
00000290: 80db cb5e 22a0 99bf a0c6 1ba8 94b6 a5bf
000002a0: 54fa 9467 42be c23f eccd 99e5 4929 ca3f
000002b0: 40e1 3b2b efb1 b83f e0ec f3be 1ff5 94bf
000002c0: ccde 01e6 9199 d83f 70d9 c5eb 9fde ab3f
000002d0: 0cbe c6f6 44e3 d3bf b842 fb44 45b2 bd3f
000002e0: 90c6 8bc2 ed54 b4bf f27e aaee 556b d5bf
000002f0: 045a 27b4 609b c23f 3885 05a0 9a90 d1bf
00000300: 685f e5a3 a02e c3bf f2af a466 4d4c d5bf
00000310: 3e4a 9665 7f57 d0bf 3461 a0cb fcfe cfbf
00000320: acc7 9fad 5da9 d23f 6816 1c61 29fa d7bf
00000330: 2431 8161 e39d c0bf 0283 e64e d5a2 d53f
00000340: 40cc 7255 4fd5 d63f 405f 9ec0 b076 c6bf
00000350: 92c5 7222 7416 dd3f 801d 312a 253f de3f
00000360: 26b7 562d 83e0 dfbf 9424 9bc5 86f8 c53f
00000370: 96d7 ec9a 0610 d9bf 909b 4050 e0fd b23f
00000380: 1a04 3199 1cb2 d4bf 3c28 a3a7 ffe1 ca3f
00000390: b099 66cf 1ba1 d0bf 240c 9e65 ab95 de3f
000003a0: de51 1e1a 1e8d d8bf c8fa 82d4 c7c3 d53f
000003b0: d89f dcbc 0d21 bf3f 88b3 5c3e 608e c73f
000003c0: 846f bed9 1cd4 c23f 08b1 59cb 50e3 bfbf
000003d0: 5841 ce41 c0ee db3f c876 d552 4b27 cbbf
000003e0: eee2 105b 2855 d4bf 40e2 f75a 93bc bcbf
000003f0: 0499 4108 5e61 cbbf 0000 3399 1508 25bf
00000400: 24d7 ebb5 c938 c8bf 307d c00f c3e7 a13f
00000410: d031 e023 3648 a03f 703a 1cfd eed5 cdbf
00000420: c87b 9f74 dc8d b1bf fc7e 2f05 16e7 c1bf
00000430: d0a8 7ad9 b941 c13f 7c76 4db0 ca31 c0bf
00000440: d003 aabd a405 b23f d42a 9d34 5645 dc3f
00000450: 488b 32c7 e2cb c8bf c01b 3f71 c185 8cbf
00000460: 4005 b3c8 b895 abbf fcd2 545d 4a00 c8bf
00000470: 9076 6962 7bf0 bb3f e4da 8e90 ae42 ccbf
00000480: dcdf 9e12 5c8e ce3f 78f9 00e8 bc32 b03f
00000490: 7add 9fb6 8e19 d03f 24e6 f01f dd27 c93f
000004a0: 52e7 1493 53f8 d43f 1452 0319 b7a9 cebf
000004b0: 646c f258 5810 c63f 340b 0ba4 d1cf cbbf
000004c0: a0c6 6318 42a2 b1bf 2040 2688 73a7 bcbf
000004d0: c8f5 b95d e14c c93f 9038 8b16 afd9 bc3f
000004e0: a892 52e1 ca36 d53f e230 b661 c5c6 d5bf
000004f0: 80df b12a 4b7b 833f d469 2dbd cc81 c73f
00000500: d0b6 a2af bd46 cebf ac66 97ca 8938 d23f
00000510: 707a 011a 0978 d6bf a866 bedf ad9d d5bf
00000520: 7c3a 1631 643b cc3f d278 2c5c bdf2 d6bf
00000530: 6807 5ef7 1c19 d9bf 5485 5411 5436 c33f
00000540: 808d 5866 fc3e d9bf 20e0 edfb 49d4 953f
00000550: 08b7 59fa 1ee4 ccbf 5ca6 f54a bc54 ca3f
00000560: e0fa d27c 0cdc da3f 7e34 12c9 390a d43f
00000570: 46cd 3723 60d0 d43f 24f2 68e7 9573 debf
00000580: 44cc 5dc7 26e9 c63f 207a 3e68 ca72 92bf
00000590: 1a43 d683 7d1f df3f 8814 998e addf d93f
000005a0: 3448 c699 4fc7 d93f 18e3 9c91 a1b6 c23f
000005b0: 709c 74fe 053f d53f 9043 b212 52c5 d33f
000005c0: 82d7 969a b11b d1bf b069 e112 3e44 a9bf
000005d0: d03d 5576 d723 abbf 7e94 a455 5bcf d13f
000005e0: 7ebd ff19 edd5 dcbf 14c6 6d91 4787 d2bf
000005f0: c8e4 f103 ed0b d73f 0c3a 1099 7d54 c43f
00000600: 909e e4de 8add a0bf 78af f987 a6ae bfbf
00000610: c027 0686 eec3 ca3f 68aa 8091 1e2f bcbf
00000620: d83c f4be ed49 c0bf a0de 5827 5145 a53f
00000630: 6ce1 7155 3d25 c13f fa86 fa0a d213 d43f
00000640: 5a8b 8e44 4abe dabf e8ec 8c80 626f b73f
00000650: ec32 26bf f5e5 cf3f 5862 b1b5 445e cd3f
00000660: 000e 4966 02d0 903f a83b 1bd6 b500 c33f
00000670: 384a 0bde cf8b d43f 7473 449f dbfb de3f
00000680: 525d 115b 5265 d7bf 786b 34d2 ba74 d73f
00000690: 54ff ed30 5017 cb3f 0048 0458 a1ba c93f
000006a0: a002 6411 af48 b6bf 0036 9e4b 14cb c6bf
000006b0: 008c aa53 b94c 993f 38c2 c0e1 84fb c43f
000006c0: 8211 5a77 e353 d2bf d6a6 eb5d 212e d23f
000006d0: 0c8f 8441 226c c1bf 9a26 9fda c441 dcbf
000006e0: 68d8 f1e8 4dbd d03f 184b 1e92 6960 c63f
000006f0: 50fb ee79 05f0 a13f 5cc7 4849 e60e cdbf
00000700: f82b 7991 9a1f ccbf b68b f53c 4c1e d4bf
00000710: 403f 39b4 a710 c33f 4036 1db4 29a3 c8bf
00000720: b8d5 20a6 fb04 cf3f 9ec9 3239 f66c d23f
00000730: ac01 1ddf ff29 dfbf fc7a bd9d 76ad d3bf
00000740: 2ea2 1a1e 69d8 d63f b63e daa6 3d50 dcbf
00000750: cc89 7718 ffe0 c5bf d8a2 958f f28e b7bf
00000760: 5436 9b8a 843b c3bf 2694 400b a018 d5bf
00000770: e0df 4592 a93c 93bf 46be b5ce 190e dfbf
00000780: 0ca9 c8ed 1297 cdbf 1edd db9e 8975 d6bf
00000790: 108f a28e df20 d83f 747b af48 6ce7 d73f
000007a0: 584b 1e07 3729 dc3f 92e7 9f80 f379 d4bf
000007b0: 0c29 3da3 3e63 cbbf 180d 1fb1 a037 c53f
000007c0: 3ccc 021a 0bd2 c5bf acdb d144 fab6 ccbf
000007d0: febd de24 40b1 da3f b8d5 cc35 879a babf
000007e0: e8e1 7e5c 3603 dcbf 10f7 0313 9cc7 b5bf
000007f0: 780c cf43 5fd7 c63f aa0d 443b a97a dcbf
