model_weights.npy (npy, 800128 bytes, 1 tensors)

array f8 [10, 10000]
0	0xbfb98e92dfdecdb0	-0.09983175244888431
1	0x3fb96ad0257b7cac	0.09928608813378287
2	0xbf99d6a924332bf0	-0.025232928118196385
3	0xbfe12d2d78569350	-0.5367648458819563
4	0x3fa920dec9a985dd	0.04907890521713985
5	0xbfd1dea8b5153291	-0.2792150276552912
6	0xbfce92d1189a0835	-0.2388554926038197
7	0xbfdcc997959449d5	-0.44980420691822803
8	0x3fd957aa2db724ae	0.3959756323279845
9	0x3fd0c0da1ee0eeba	0.26177075400822114
10	0xbfa2998626ceb31a	-0.03632754539225953
11	0xbf871dd7ba7eca1e	-0.011287389162906666
12	0xbfcfb0104fbbf953	-0.24756053822779708
13	0x3fb91ad6e4bbc43c	0.09806578716576636
14	0x3fd21dcd3b97455b	0.2830689508383181
15	0xbfb1fe8621ce8e50	-0.07028997731554765
16	0xbf957c7da800c9c4	-0.02098270738515297
17	0xbfd2de87f85c5409	-0.2948322224995655
18	0xbf96c2732250e74a	-0.022226141900524334
19	0x3fc316871df892af	0.1491249939291683
20	0xbfd553c7d5b074f3	-0.3332385622796458
21	0x3fc65fbe4b51a6c3	0.17479685476000925
22	0x3fd594b61fbc91e2	0.33720162486340943
23	0x3f862baa993e0ed0	0.010825474549853636
24	0xbfd60b1e28dfb4b6	-0.34442857734286336
25	0x3fd211e3e4449832	0.28234193126479845
26	0xbfc302aa24cac884	-0.14851881786814058
27	0x3fd75260a2d84ac1	0.3644029226572166
28	0x3fdfdec194ac0f91	0.4979709579349612
29	0xbf9ad4f3c06cf482	-0.026202973003127024
30	0x3fdb1a3a6fc1837e	0.4234758464208922
31	0x3fbdb3c804ffa05c	0.11602449533495601
32	0x3fdcad8a1bbdbb61	0.44809200963111634
33	0xbfd9624608f8c1fe	-0.39662314296859325
34	0xbfb2a62a56409004	-0.07284798246161023
35	0xbfd82eb687f4a1e4	-0.3778511359874115
36	0xbfdc8569695f7a64	-0.44564280786827326
37	0xbfe037b4ea2c0a8c	-0.5068001340553834
38	0xbfd252a8eb6ff69a	-0.28629515640191416
39	0x3fbf4d70aa1fa370	0.12227539208801175
40	0xbfb457e57137a970	-0.07946619047257797
41	0xbfd3ad272af36aff	-0.30744342035693245
42	0x3fd13b638f9e1f0f	0.26924981141245125
43	0x3fda9ea97cc9436a	0.41593396364355917
44	0xbfd9efe1d053e9fe	-0.40526624054442084
45	0x3fc8d2fa62d68637	0.19393853975366124
46	0x3fd4b4ce696270bd	0.3235355404992893
47	0xbfdd9a77cbf9463e	-0.46255297583875066
48	0xbfc8641057d69e17	-0.19055370606405184
49	0xbfa17b88362504d2	-0.03414559994645007
50	0x3fb6a0d28a9127aa	0.0883914554880493
51	0x3fc02abbe1262c89	0.12630413526162368
52	0xbfdb011ab72b1344	-0.42194240462804466
53	0xbfca4fd719f4afe1	-0.2055615307557437
54	0xbfe152fb3fca8031	-0.5413795705717402
55	0xbfc0211330fa98b8	-0.12600936786220074
56	0x3fc082da96eb42f3	0.12899334305850338
57	0x3fd4bfb4133de235	0.3242006481082485
58	0x3fd22f4a9e3b52de	0.28413644268338867
59	0x3fc52b1dfb20b566	0.16537832986925166
60	0x3fd47ecea8fa3b45	0.32023970128732443
61	0xbfd7bd5bbd9c8210	-0.37093251721128784
62	0xbfcb1c49f571a190	-0.21180080875934637
63	0x3fce42b6eff3992a	0.23641096798309863
64	0xbfc029adb9188f12	-0.12627193010222776
65	0xbfbc233c854267d0	-0.1099126649227451
66	0x3fd5314bd9f60764	0.3311338070417291
67	0x3fa98a3885d9765f	0.04988266595749446
68	0xbfdb5a795031ea57	-0.4273970873979684
69	0xbfda9d47d58da206	-0.4158496461373321
70	0x3fa720c05059bc7c	0.04517174702493151
71	0xbfd125716e498c17	-0.26791034479373493
72	0xbfd4a5271f7c94e1	-0.32258012843005984
73	0x3fdc3eee9c1f5e57	0.4413410687097658
74	0x3fd1ca687c3a8bf3	0.2779790127917174
75	0x3fa14fd6f591d396	0.03381225345302778
76	0x3fccbe573b79da58	0.224558738747606
77	0xbfce9f504cc87cce	-0.23923686741998157
78	0xbfd60912e745b093	-0.3443038233297184
79	0xbfd0016c70dc5513	-0.25008688947248564
80	0x3fc4570a3c58c8cf	0.15890624949094564
81	0xbfce73cc4a7f8475	-0.23790887487033144
82	0x3fd806473bc3bb9a	0.37538319431671996
83	0x3fdc53b63e698618	0.44260936827603947
84	0xbfd9644f6043e1ac	-0.39674744034666776
85	0xbfc10a7838a913c1	-0.13313200728057775
86	0xbfc26d4d20c920bc	-0.14396061039793107
87	0x3fbf7cf23a96e816	0.12300027780921172
88	0xbfdc1e118e53d2eb	-0.4393352403560999
89	0x3fb5f18fe98504ec	0.08571719599878563
90	0xbfb5b33160fac7e8	-0.08476551644960717
91	0x3fd203b4a1250289	0.28147617089056404
92	0x3fc77cb0dd907b89	0.18349276369641768
93	0xbfe0c7d567acbb3d	-0.524393751611434
94	0x3fc1a522e26c4932	0.1378520589428916
95	0x3f92b3eef6beca48	0.018264516649376256
96	0xbfb5c8c6109a3260	-0.08509481339769698
97	0xbfca6e98d7be6215	-0.2065001538692434
98	0x3fb8302cdf14aa7d	0.09448509641939924
99	0xbfd741602be3c9b2	-0.3633652142154019
100	0x3fd64e0737de30da	0.34851246314862083
101	0x3fb08625b016dca3	0.06454692410521772
102	0xbfd525a3f5b673d8	-0.3304223918474327
103	0x3fc15db1691cd38f	0.13567178375674557
104	0xbfaac37e4b3fb68d	-0.052272745786337095
105	0xbfc22af482682b04	-0.14193588607334828
106	0x3fb7a9abacbcee35	0.09243271796452109
107	0xbfc88686d741f9c9	-0.19160542975073572
108	0xbfd50f64d0b4bbbe	-0.32906456357425984
109	0x3fa003d871a5fb40	0.03127933871564048
110	0x3fd705feb730af80	0.35974090470948994
111	0xbfdc5c80b4168962	-0.4431459196731763
112	0xbfbffb32e7ec93da	-0.12492674028597098
113	0x3fbec8a69bfcf4f7	0.12024918850234544
114	0xbfe004446aa250ec	-0.5005209047981487
115	0xbfcdf855be1b7963	-0.23414108069023162
116	0x3f69a1f7a8cc0950	0.003128989896482505
117	0x3fc6655c8de3119d	0.17496830871654093
118	0x3fc9bb9198163d2e	0.201036643277328
119	0xbf987149218d5196	-0.023869650528767737
120	0xbfd8f24b2f296537	-0.3897884331286891
121	0xbfc984076d2657da	-0.199341705604353
122	0xbfd76777144aa302	-0.3656900118026415
123	0xbfcdafd4dd886526	-0.23192845170050552
124	0xbfcd08ef4f5972ac	-0.22683516859514918
125	0xbfd1317324ad3761	-0.2686431749506167
126	0xbfb3d8fe0e3965bb	-0.07752979132910458
127	0xbfdbef56ffc752c9	-0.4364831445539435
128	0xbfd0d593c2ef2d0f	-0.26303571735907466
129	0x3fc005672cf83d6d	0.1251648873880912
130	0x3fc0024e2c1b2abc	0.12507035401934796
131	0xbfd034a8ce1a4bb3	-0.25321407439440263
132	0x3fb3c9c87d891d58	0.07729771675905306
133	0x3fcec81efc75065b	0.24048220946319784
134	0x3fd471b1797125ff	0.31943928584641407
135	0x3fc73ba9b0b53b02	0.181508265765352
136	0xbfe090686111023c	-0.5176278968647874
137	0x3fd495819500df73	0.3216251330481931
138	0xbfd697db018ab7b4	-0.35301852369854747
139	0xbfaf4e21155bf680	-0.06114295373661793
140	0xbfaffabe77ffb40e	-0.062459900043769875
141	0xbfc9abf41224daf8	-0.20056010137496805
142	0x3fd0f20a43bea3dd	0.2647729550904481
143	0xbfc84dd80aca323d	-0.18987560774657367
144	0xbfcaa647e308302e	-0.20819948754831458
145	0xbfe0a7d6cc08f3e5	-0.5204881653841055
146	0x3fbf87013d3748d4	0.12315376038103248
147	0xbfcae7bfd5fca345	-0.21019742916657883
148	0x3fc6fe9bdaf22102	0.17964504423822097
149	0xbfd5b879459db652	-0.33938438223308254
150	0x3fbbd96402ace41e	0.10878586831394485
151	0x3fd7f03d156cef18	0.3740380009873987
152	0x3fca427c2559f7bb	0.20515395950127222
153	0x3fb5c70c3923745f	0.08506847758276724
154	0xbfdcc87830af0e82	-0.44973568681982823
155	0x3fd2e847527adce4	0.2954271607845398
156	0x3fc535ae03f36128	0.16570067589669546
157	0xbfd9adf77b11bc0e	-0.4012430860374828
158	0x3fb189d6c7b5c617	0.06850950599416482
159	0xbfc551a1bff87397	-0.16655370591697924
160	0x3fd92e14d3e19b0c	0.39343758288889386
161	0x3f902e60a88b3a78	0.015801916396237264
162	0xbfb22cee75000e73	-0.07099809986544318
163	0x3fd67d466932cf87	0.3513961818055055
164	0xbfe0da13f96a6401	-0.5266208526037418
165	0xbfe017901bf8411f	-0.5028763338359886
166	0xbfcb00c37814912d	-0.2109608017282282
167	0xbfde6d4b4e5fedc4	-0.4754207864168303
168	0x3fb1fa97acf460d6	0.07022998783611753
169	0x3fbcb2087cdc0228	0.11209157036137951
170	0xbfcd3cc1efb7ec06	-0.22841667370798308
171	0xbfd0ac3a89fa8ff8	-0.26051200365532123
172	0xbfac75ce85312304	-0.05558629394415074
173	0x3fb24041e8048466	0.07129299082272808
174	0xbfcb74264fbe143f	-0.21448210614849647
175	0xbfc4eb18aa7ee1b3	-0.16342457127553942
176	0x3fd5a95fa18b0808	0.33846274161999235
177	0x3fce53301ceba482	0.2369136944974209
178	0x3fd54d3dcd6f6586	0.3328394418909614
179	0x3f7c1a4c8116c207	0.006861018032779948
180	0xbfdf8de455c8b816	-0.4930353963599158
181	0x3fd528849df9c378	0.3305980246287201
182	0x3fd1888436e6cb17	0.27395730363348164
183	0x3fdf010024401313	0.4844360689169644
184	0xbfd2d79a1398773c	-0.29440929330472776
185	0x3fd9d83c8561a130	0.4038230230858231
186	0xbfdc9efb21f80489	-0.44720342938678265
187	0x3fd186c72a3605e1	0.27385119554682374
188	0xbfd62f3b53f63ab3	-0.34663279723546764
189	0xbfd0b3742df0355a	-0.2609529923073147
190	0x3fd525b6f3554415	0.3304269195842278
191	0x3fd42726abce297d	0.31488959100592934
192	0x3fa585892c3f7195	0.04203442254194837
193	0x3fbe3dc0ca8232d4	0.11812977737481428
194	0xbfd4f812e3dc73e6	-0.3276412224966506
195	0xbfc8cf354479c024	-0.1938234886506517
196	0x3fdbbd1a69bcd7e8	0.4334169418901852
197	0x3fce96b41612c424	0.23897410466955293
198	0x3f99f4d9df76fc06	0.025348095192153884
199	0x3fd73042073b9a09	0.36232042986230845
200	0xbfcc0d1fbf7a3de7	-0.2191505131672635
201	0xbfa4a293ca6cab45	-0.04030286642076545
202	0xbfc84c0efb6e182e	-0.18982112194879747
203	0xbf4f390ce4164800	-0.000952845854202744
204	0x3fca6d511bff7d65	0.20646108500566665
205	0x3fdd759fe7f242fe	0.46030423785218477
206	0xbfcbcf1c685e8807	-0.21725802513270784
207	0xbfe1595d9700470a	-0.5421588849296495
208	0xbfda14f21e540c28	-0.4075284286665828
209	0xbfda427872e33114	-0.4103070375392843
210	0x3fcf0350ee936863	0.2422887005730586
211	0xbfcc88e76926684c	-0.22292797693518407
212	0x3fd777d3781692da	0.3666886017547718
213	0x3fb7a114351b2412	0.09230161949666663
214	0x3fa9a5ba304f985c	0.050092523953751494
215	0x3fdcde6a91f49bc1	0.4510752129885383
216	0xbfa3f3d2c14eb27f	-0.038969598862739645
217	0xbf763e8cf7c85998	-0.005430746703970611
218	0x3fd3d8355612dcb8	0.310071310097054
219	0x3fdae337dbd1822a	0.42011829821243174
220	0x3fc1bb5acb8534a7	0.1385301107169756
221	0xbfc874d288b21196	-0.1910651366671458
222	0xbfdb843d8ce8511d	-0.4299463153886494
223	0xbfd4bdcfffae4263	-0.3240852352983323
224	0xbfda6942aa15bb16	-0.4126745854363646
225	0xbfc0e8a89078a76f	-0.13210017256033832
226	0xbfd15a02b25f66ec	-0.2711188070221471
227	0x3f818e0ba6aee258	0.008571711563363824
228	0xbfc4d10c4e4cab4a	-0.1626296408006403
229	0xbfb01d6f420ed44c	-0.0629491363786922
230	0x3fc1793a32593275	0.1365120645372319
231	0x3fda2e713b49541b	0.40908461370173804
232	0x3fdb7a5026ee91c2	0.42934039880699626
233	0xbfb9dff2e70b1750	-0.10107343807893909
234	0x3fc7f0dffb5301fc	0.18703841945354316
235	0x3fb1c1e8aa370aec	0.06936506419792082
236	0xbfd40b8986ca5f9a	-0.3132041755975422
237	0xbfdbabecde8414f9	-0.4323684857375408
238	0xbfc71ee269127844	-0.18063001757122
239	0x3fdaca6698d7f30c	0.41860356260421905
240	0xbfdb4d3429a6e6a3	-0.42658714358877087
241	0xbfc21df3da601856	-0.14153907931194237
242	0xbfb7bd2969a01c80	-0.09273012951608628
243	0x3fdaa319bf79cd7b	0.4162048692589548
244	0x3fd3069b8b751c5d	0.2972782956971452
245	0x3fd67fe0995d785e	0.3515550134378652
246	0x3fcae0b11503eed8	0.20998204733029158
247	0xbf98a572e36ffbfc	-0.024068637019805536
248	0xbfd3ea976509a1ef	-0.3111933218665674
249	0x3fd61167b7dd8e9c	0.34481232600794853
250	0xbfdd2f05034260b3	-0.455994847472094
251	0xbfc88649d4791919	-0.19159815668735616
252	0xbfdd5f37e503439f	-0.45893666615034506
253	0xbfce45535d796c1e	-0.23649065078902337
254	0x3fd1b02e522beb3a	0.27637823128286565
255	0xbfc959374cafa8d9	-0.198035156673831
