SMDModel/b1.npy (npy, 928 bytes, 1 tensors)

array f8 [100, 1]
00000000: adbb d6be 996b cf3f 6bbe ebf0 65f0 d3bf
00000010: e9ca 7e9f 38db d93f e35d 8dec 064a dfbf
00000020: 77f9 9996 a9c5 dcbf c871 c775 4416 bfbf
00000030: 041d d594 e772 b5bf 254e c12d addf bebf
00000040: f74c 0a4a e9a4 df3f 983a de36 19ff d63f
00000050: a05e 8009 1892 db3f 3d6e 1460 fbb3 d13f
00000060: 5d4c 1898 70c2 d33f 736e 0245 8b81 c73f
00000070: 7b8f 99d9 7a63 c83f 9a75 0d1a 9e8c e0bf
00000080: 3095 ede3 e74c b2bf 5562 dc90 0fe1 cbbf
00000090: 1c59 5cab badf af3f 47b9 0e85 a265 d53f
000000a0: 7ed0 0f18 0f77 c7bf 0c13 9955 934f c53f
000000b0: da1a c684 138e c13f 125d 1e56 7571 d03f
000000c0: fc75 500d 8970 cfbf fcbc e593 f87b 75bf
000000d0: 54fa 0acd 8bfb d23f cc50 3acd 6fbd dfbf
000000e0: 085b 5b59 a96f 953f def3 ec58 035f cfbf
000000f0: 7c3b 7a00 d323 b8bf 1cd9 53b2 e9df b0bf
00000100: 6c6d 4faa 78d7 d33f 9e81 b561 64bb ca3f
00000110: 6780 0c1a 0ed4 c0bf 96b4 3286 c536 d2bf
00000120: 8729 5299 e36b d4bf 5a87 13f3 e3f9 d8bf
00000130: d63d afe3 a252 b6bf edd6 5d93 9a8b c13f
00000140: 4b02 6a0a f79f d43f 3e55 324a 7b55 bebf
00000150: 9ae0 f7b6 6e68 d4bf 8d8f c906 2a06 b6bf
00000160: 9bbd abd1 7994 d0bf e42c 06e4 171c d9bf
00000170: 8a30 ca16 dd3a e0bf 4487 e7d3 d290 debf
00000180: e064 2fb6 e4a8 aa3f 753b 0047 f375 cc3f
00000190: adbc 6900 3541 da3f 42fa 584c a509 d6bf
000001a0: dc09 aa59 b24c b6bf c3d2 1587 b723 c0bf
000001b0: dbc1 cecb b2b3 dabf f9df 2ede 51ba d5bf
000001c0: 6246 5579 c115 a1bf d1a4 2a97 ea38 753f
000001d0: 98a2 b0d4 faa6 adbf 9435 8e5c 659f da3f
000001e0: 4a43 7d24 caf6 d03f 3e71 7666 dd4d c3bf
000001f0: 1d18 fd42 b531 c5bf 2547 05a8 ceff c1bf
00000200: c879 5710 a82c d6bf 383a 7066 6b79 ddbf
00000210: c8b3 7e8e 4276 ccbf bbd5 9981 03b2 d2bf
00000220: 594d f8cb 1e37 d63f d045 37bd a5a7 d63f
00000230: 3c78 e506 fa92 c5bf 23c0 0657 3788 cbbf
00000240: 49f0 44de eaf6 debf 873e deb8 df04 d63f
00000250: 1db4 0d0d d953 c33f f89b c187 9307 d43f
00000260: a054 8790 d0f8 ddbf dc2b 0b14 c32f 91bf
00000270: ffce 0464 4d1d c4bf b38d d178 ecac d9bf
00000280: 2da3 d61c 5ec8 ab3f 3e9b f158 69df bb3f
00000290: fe50 d23e d9f8 d2bf 8a8f 5a33 e8ef d53f
000002a0: 6865 4e73 cc14 d1bf 2405 a813 30ab d53f
000002b0: 8ef1 6415 b6b7 a53f 623f d2c7 1b08 dabf
000002c0: 666a 2637 9e76 d83f 263a 9916 04e3 bc3f
000002d0: 54cd bba4 2a60 7dbf bb65 0a7e 5518 c5bf
000002e0: f667 1410 4b86 da3f a270 f3b0 5e5a 9e3f
000002f0: f59e 535c ecc6 a7bf 0739 e40a 2653 d43f
00000300: 87a8 f5ed 63bf c4bf 2c9b 2874 ab92 9f3f
00000310: a4e8 0ab6 115e debf c0fd 3f21 6a8e babf
0.2454712087469181 -0.3115477421515382 0.4040051992007379 -0.48889325238039144 -0.4495643587796602 -0.12143352389779871 -0.08378455527882883 -0.12060053221767271
0.4944403861092747 0.35931997640811053 0.4307918637073076 0.2766102255133978 0.3087426648427874 0.18364086980442415 0.1905358850955244 -0.5171652325476999
-0.07148598971032949 -0.21780581067357 0.06225379316144794 0.33432829851053153 -0.18332089114085542 0.1664909522970891 0.13714832289789208 0.2569249478342083
-0.24562180662262267 -0.005245181090102632 0.2966031553623101 -0.49593730012680903 0.020933767393979813 -0.24508706895895122 -0.09429663430840479 -0.06591663936328412
0.3100263274370352 0.20884375353763301 -0.1314714076224874 -0.2845929918792732 -0.31908502552746437 -0.39025210130613674 -0.08719842966751598 0.1370728702128682
0.32226348893167217 -0.11849184571686508 -0.3188740526961823 -0.08603155770975786 -0.2590622470442782 -0.39233968036633216 -0.5071855015862792 -0.4775893277529699
0.05206980441989528 0.2223495575603597 0.4102299217256114 -0.34433872657601594 -0.08710779847209643 -0.1260899934383329 -0.4172179212864912 -0.33949705789154866
-0.033369108258409566 0.00518123280441181 -0.05791457983315701 0.4159787563192705 0.2650628429737948 -0.1508137464815124 -0.1655794694035543 -0.1406191177762192
-0.34647561641568503 -0.46053586009739744 -0.22235900838623324 -0.2921150937684975 0.3471142761129236 0.3539823863803493 -0.1685478719400083 -0.21509448766073644
-0.48382064538941855 0.34404748014001324 0.1509963334787309 0.31296242005777186 -0.4683114444172336 -0.01678376016461046 -0.1571442354557959 -0.40117942618072816
0.054263058681789246 0.10887773915747531 -0.2964385140887912 0.3427677632810108 -0.2668944479024362 0.3385734741169293 0.04241723071251889 -0.40674490464970436
0.38223986993549486 0.11283898879740004 -0.007171789718756944 -0.16480511335684675 0.41444660730633076 0.029641608762958634 -0.046439539213507 0.3175749880182512
-0.16209076995011548 0.03083293816066683 -0.4744915273437391 -0.1037355738808321
