SMDModel/W1.npy (npy, 800128 bytes, 1 tensors)

array f8 [10, 10000]
0	0xbfcc3dcffd65337e	-0.2206363665849515
1	0x3fae144aa093829b	0.058748561956013044
2	0xbfac7818553a1f80	-0.05560375252122096
3	0x3fd28d8fd522a87a	0.2898902493858554
4	0xbfde2103b87d8209	-0.4707650472319363
5	0x3fa227b84dd75849	0.03545928907594537
6	0x3fbda8fba9d5c02e	0.11585972687112253
7	0xbfcb8851f4dc877c	-0.21509766059994806
8	0x3f60e954ab1ae960	0.00206438576500749
9	0x3fc3f278af1d77f6	0.15583714056532444
10	0xbfaa2a96ecec52b4	-0.05110618250015389
11	0xbf92ba517cf6aabf	-0.018288872959298482
12	0xbfdfaafce6c838ff	-0.4948112729770315
13	0x3fd0151e778381b9	0.2512890021444281
14	0x3fd3166fd4162d1d	0.2982444354208427
15	0x3fd639a3e86c1361	0.34726808259465797
16	0xbfdd51cbbafe0f59	-0.4581174207780712
17	0x3fd79ba8d9c895a5	0.3688757063667601
18	0xbfd14d4beee90dbb	-0.27034281092729956
19	0x3fa0f2a4a7e78b66	0.03310122060408709
20	0x3fd7aaf9b65bcc8f	0.3698105126233679
21	0xbfb93eb8dcca7ddd	-0.09861331358342036
22	0x3fa22a9e4169eb6b	0.03548140095241233
23	0x3f98e6b0073ac5cf	0.024317503396280856
24	0xbfb973ff79f1b015	-0.0994262383189269
25	0xbfd6fa2d12a2dc88	-0.3590195352548524
26	0xbfd209bdbf44bf61	-0.28184455565041416
27	0x3fc0d02f528d0fa3	0.13135329752742306
28	0xbfdca5f79beddf63	-0.44762983539066264
29	0xbfca38454283627c	-0.20484224078861135
30	0xbf8ff662e86c104d	-0.015606663434944457
31	0xbfc2eee5f7c087fc	-0.1479155978896073
32	0xbfdbc35c1be6ce22	-0.4337988159634013
33	0xbfad3e2ffb356997	-0.057115077414624675
34	0xbfb4f4eed86f262e	-0.08186238082921513
35	0x3fd1ae21f454ebdc	0.27625321255226054
36	0x3fd510a8ae0ae9ee	0.3291417789111212
37	0xbfc8ba85983d5034	-0.19319219525880416
38	0xbf9f680e3700f569	-0.030670377833521032
39	0x3f8dafc05cd725da	0.014495375474228678
40	0x3fd3a85862744dcd	0.3071499787776844
41	0xbfdef681abe42007	-0.48379556452027866
42	0x3fdd2c5541e0392a	0.4558308738059106
43	0xbf8176976be00e41	-0.008526976565924051
44	0xbf98be981514c676	-0.024164558684054836
45	0xbfdd1fdb6b7ce11f	-0.45506940361839726
46	0x3fd9337438297518	0.3937655018288111
47	0x3f8b2103923bf430	0.013246562862599814
48	0x3fda4b2775273d88	0.4108370441508318
49	0x3fd0ecdeca3ea741	0.2644574141546521
50	0x3fd4dc1543dfa684	0.32593280437740924
51	0xbfc85b6fb8fe2061	-0.19029041798444538
52	0xbfd5bdac77c1b5ee	-0.33970176405895713
53	0xbfd06f3516ca66fd	-0.2567875597538743
54	0x3fce8901186cae1b	0.2385560387859734
55	0xbfc39fa926a8b069	-0.1533099592937817
56	0x3fd8831e909405bf	0.3830028926750763
57	0xbfd573afd86936bb	-0.33518596776853443
58	0x3fb065e54f76a3d5	0.06405480566048934
59	0xbfd311057ef03874	-0.29791390796970707
60	0x3fced0b0d9d2ad4c	0.2407437385166794
61	0x3fd700b786ad365b	0.35941875602734336
62	0x3fb8ed50ede858fe	0.09737115677157601
63	0x3fd5b1dd0de7fe9a	0.3389809261134161
64	0xbfd4844e7b1c6e01	-0.32057535193027326
65	0xbfd04dc23434677f	-0.25474600885501525
66	0xbfdf743825ad467d	-0.491468464654737
67	0xbfda59ea2786bfc5	-0.41173795566555454
68	0x3fcab59459de9130	0.20866636646418035
69	0xbfdbea0c57f62b5f	-0.43616016950607234
70	0x3fdc43b278e1151a	0.44163190655338413
71	0xbfb33fd07d1b383b	-0.07519248060563737
72	0xbfdf3794b1872c45	-0.487767384879309
73	0xbf9f301afc0a1e6b	-0.030456945069572344
74	0xbf97c51a06bd9cea	-0.023212820683878123
75	0xbfdff6e6860b2a90	-0.499444609548541
76	0xbfcf8ece262973a0	-0.2465455709779265
77	0xbfd0e787c49b202d	-0.2641314907054973
78	0xbf802213aa43d3e4	-0.00787749636990926
79	0xbfd7a97cb34c1752	-0.36971967229361724
80	0x3fd3d8580ab0e308	0.31007958454169726
81	0xbfbcbed808999da0	-0.11228704652750432
82	0xbfd0f9c5449bbeba	-0.2652447862628652
83	0xbfd77faeb432b104	-0.3671681174989916
84	0x3fcff0b503726467	0.24953329723647075
85	0x3fd7ac67d1a33781	0.36989779922884486
86	0xbfd69576c0e60bdc	-0.35287255132442197
87	0x3fd8e0c6725b4c57	0.38871918838157654
88	0x3fd1b0e76c8fc3b2	0.2764223632976225
89	0xbfdd57b2dc01276e	-0.4584777019959948
90	0x3fd08c38312c2cc8	0.2585583191109433
91	0xbfd6adf34c569fd8	-0.35436708884162504
92	0xbfa5b1f831266f99	-0.042373424529812805
93	0xbfc192da80a3178c	-0.13729411393267943
94	0xbfdddce4de9936ec	-0.46660730112203797
95	0xbfc1f9ca6295d654	-0.14043550313697273
96	0xbfb6dd8dcf4276ed	-0.08931814489411823
97	0x3fda1c951ef8f495	0.40799453758865784
98	0xbfc8289039d3e7ec	-0.18873789619084336
99	0xbfd6707b33931a65	-0.35061531101783877
100	0x3fca81e4256fd129	0.2070889647290042
101	0x3fc384ab3f0d1513	0.1524862344614709
102	0x3fb876aec08ddcff	0.09556095315007339
103	0xbfca0ade148f9bb9	-0.20345664981797798
104	0xbfd14b013ced1481	-0.27020293187917593
105	0xbfcb4b0afbc0e66e	-0.2132276276841369
106	0x3fdda1e0657e98a2	0.46300516044210316
107	0xbfd173e4e4e0e007	-0.27269861556442304
108	0x3fda13f06061039d	0.40746697818763683
109	0xbfd158afd06ce18e	-0.27103801111254533
110	0x3fd7c3b2e505acc5	0.37131950726934476
111	0x3fc55140e4fb3962	0.16654215985040383
112	0xbfc3849586ff5772	-0.1524836453597192
113	0x3fd4b0097b3c35c5	0.32324444803893143
114	0x3fd85933d14ca52c	0.3804444831790359
115	0x3fbf9af8a0d4e052	0.1234584229140421
116	0x3fccd09e0d616834	0.22511649754852814
117	0x3fc23e3549709acb	0.14252344213419685
118	0x3f9e6157fc293416	0.029668211713488622
119	0xbfd27cab6400103b	-0.2888592220845145
120	0xbfab3e34364d489b	-0.05320895350327356
121	0x3fb12b3b49555f96	0.06706591167801287
122	0x3fa36bae95806805	0.0379309232232146
123	0xbfd762934b41f24e	-0.365391562932733
124	0x3fc547d1d2b5adf4	0.16625426090773454
125	0xbfd769bcc9e096b1	-0.3658287021120073
126	0x3fbea658c69fcba0	0.11972575043891576
127	0xbfd33a38c28ed486	-0.3004285716991223
128	0x3fdd46d7051f7659	0.4574487257030789
129	0xbf80d873084ec7e6	-0.008225344363243136
130	0x3fd22051d4a5d8d2	0.28322263494864075
131	0xbfdac3474896f029	-0.4181688507922013
132	0xbfd14b450246ab59	-0.27021908972044667
133	0x3fc276ab3add936f	0.14424648641866208
134	0xbfc02d04561ab7b6	-0.12637380794825298
135	0x3fd140f0d1ffdc92	0.26958866603622156
136	0x3f9b75b814abf6da	0.026816250096991158
137	0x3fdaf7074bef2daf	0.42132742324312294
138	0x3fd08188f52d5253	0.25790618842191754
139	0xbfd08507ab1ddffe	-0.2581195040761485
140	0xbfc19e5c9da5e215	-0.13764531800895044
141	0xbfa99c1f21cf8316	-0.050019238354940196
142	0x3fd6da8cdcb28b77	0.3570892482040828
143	0xbfd13d867474c2a8	-0.26938020107904004
144	0x3fdc9e8220414ee7	0.4471745791426955
145	0x3fc0c97cab4d0fe2	0.13114889492328446
146	0xbfd4502a7ca3dff9	-0.3173929421604949
147	0xbfd5fedb09c70bed	-0.34368015246235367
148	0xbfcfc2c5142ffe8b	-0.2481314037868184
149	0x3fb276171f2b8fbc	0.0721144152735737
150	0xbfc1531d01bcbf38	-0.13534891686276196
151	0x3fd72fa38ca15a81	0.3622826455443047
152	0x3fd54d99b3123552	0.33286135184683474
153	0x3fda7fc619175dd8	0.4140486950904836
154	0x3f3725170e13d350	0.0003531628882023534
155	0xbfd9d3ec9ef54a69	-0.403559832794747
156	0x3fb20ebe8dff81e2	0.07053748099088566
157	0xbfd6287d580f1c51	-0.34622129058374634
158	0x3fdf820f1044ff67	0.49231316174335976
159	0x3fdc8fe6f0348771	0.4462830873254609
160	0xbfc384ab9e02b4ab	-0.15248627868041828
161	0x3fbdf4c69508c08a	0.11701623095064143
162	0xbfcb2149ff282322	-0.21195340117289968
163	0xbfd8397b9794d6cf	-0.37850847056266174
164	0xbfdc3229f43aadec	-0.4405617604304257
165	0xbfdc6fbb3fbe79ab	-0.44431954598430917
166	0x3fcea7cac13e42f2	0.23949560580924573
167	0x3fdc0f9167b03361	0.4384501946049593
168	0xbfbf45fb36b495e9	-0.12216157994824751
169	0xbf9f04d1650eeb24	-0.030291816514117845
170	0x3fb74e778e867e50	0.09104106168387571
171	0xbfd3c8b869eb9835	-0.30912599891451303
172	0x3f9e49de2fb54a7c	0.029578658735156513
173	0xbfd16de82ff4c031	-0.2723331898041606
174	0x3fd184dd1627d72a	0.2737343517650169
175	0x3fbfb1fc885f2bda	0.12380960778607122
176	0xbfd590b18b09b1c2	-0.33695639207760675
177	0xbfbeae63bbe38529	-0.1198484739029665
178	0xbfd5c4e5080818c2	-0.3401424959596505
179	0xbfadc2e58ae55b78	-0.05812756844050332
180	0xbfdf0b7c1621176c	-0.4850759712320414
181	0xbfd5bb91c104536a	-0.3395733246737139
182	0xbfbc555a876f44aa	-0.11067739302167703
183	0x3fd18969b33f5d78	0.27401201729431746
184	0x3fa02021d1fb0751	0.03149514854659564
185	0x3fd075681401dbf4	0.25716592744669176
186	0xbfd0964e6a459eb2	-0.25917396906013856
187	0xbfd984b43d7c5c18	-0.39872461323233344
188	0x3fd0635e3b737a4c	0.25606494718332296
189	0x3fdaaef6bec89962	0.4169289458390236
190	0xbfd86cd7819ad0cd	-0.38164317757333494
191	0xbfcd5c0a9e5a92c5	-0.2293713830196308
192	0x3fc08ab7f7c76325	0.1292333564622591
193	0xbfddb227b0b174b2	-0.4639987206954387
194	0x3fd47735fddfe87d	0.3197760562176269
195	0x3fd1f14f18e28c04	0.28035333089991377
196	0xbfc6dfb50131fb74	-0.17870199735986214
197	0x3fdc978840b7c7f5	0.44674879379374427
198	0x3fa32338d253b9ed	0.037378097223939345
199	0x3fd044e6ddc8c443	0.25420543345086716
200	0xbfb482402948362e	-0.08011246688712312
201	0xbfb0e0c3629eb81c	-0.06592961461748853
202	0x3fd88a5dec5cff4f	0.38344524462080626
203	0x3fa7260aa1678a11	0.04521210880536242
204	0x3fc1de69283d4d79	0.13959993805711315
205	0xbfd83a9bf1ec9502	-0.37857721925168175
206	0xbfbb327511bf3da2	-0.10623866732861711
207	0xbfdcb52114eef95f	-0.4485552505901946
208	0x3fc8b2d1dceb68d2	0.19295714652145662
209	0x3fd4f574ecd27dc0	0.32748149039431595
210	0xbfda2fb031f8201f	-0.40916066055115324
211	0x3fd733f3c59e8636	0.3625459127307268
212	0xbfd00659cca879f6	-0.25038762079375887
213	0xbfd5296d609a66f5	-0.3306535190000511
214	0x3fd3153aff9a8dbe	0.29817080460835743
215	0x3fde92f4965f8de8	0.47771944699181157
216	0x3fdf8d8403348e27	0.49301243126885413
217	0xbfcb2cedb25defa8	-0.21230860909770155
218	0xbfb3f16dbcad007d	-0.07790265899984834
219	0x3fd50c6e9325dfd8	0.32888378496090587
220	0x3fb900d571d5d3e3	0.09766897229367504
221	0x3fda0a2714503191	0.40686966880527914
222	0xbfdcd36e4b780762	-0.45040471429830664
223	0x3fd5410c6ddb5a63	0.3320952484913617
224	0x3f9afc6954a7c118	0.026353498260449276
225	0x3f856920049f8e6c	0.010454416409579191
226	0x3fc1a82453125544	0.13794378334265833
227	0x3fd5a19a0f89ffb5	0.33798839108930717
228	0x3fd514dd13b5b4ab	0.329398411987152
229	0x3fd98e9d80f8eef6	0.3993295440193231
230	0x3fb3709a37f288f9	0.07593692651656515
231	0xbfa103c862b321c7	-0.033231985138232605
232	0xbfdb4ba13c01f09c	-0.42649107799639707
233	0xbfd0694be315adcb	-0.25642678428877436
234	0x3fca1542e7fddcf5	0.20377384498326703
235	0x3fbf05e83b0753f1	0.12118388596657305
236	0x3fc7557e8d505c30	0.1822965803155241
237	0x3fdf6f1fe8baa37c	0.49115751006552677
238	0x3fd45ba859e699ab	0.3180943372666671
239	0x3fdb7fd394d9c8cc	0.42967690979197637
240	0xbfbb2422bd393d33	-0.10602013702122264
241	0xbfdc730f74b41f65	-0.4445227279361375
242	0x3fb46ad78bef3c7d	0.07975527922029531
243	0x3fdc4fe421a3d656	0.44237616810946656
244	0xbfc6416a110363ce	-0.1738712866852254
245	0x3f9d6868b3e19432	0.028718601206851165
246	0xbfdc2c8d80cb15a8	-0.4402192838427603
247	0xbfc735dcb5a305b9	-0.1813312422655551
248	0x3fa55f1b77b106a2	0.04174123607709858
249	0xbfb25d3a7012a515	-0.07173505054619896
250	0x3fd751bd60e5b923	0.36436399901039546
251	0x3fc234c8d8004be7	0.14223585650378753
252	0xbfdfcd77d97d619d	-0.4969157813952963
253	0x3fc806e48bbc50f4	0.18771035025623173
254	0xbfdd3d0a5c161acf	-0.4568506144791344
255	0x3fd7c110b023937c	0.3711587638957139
