SMDModel/W2.npy (npy, 1728 bytes, 1 tensors)

array f8 [2, 100]
0.34362030919735687 -0.4982206637795104 -2.1507152032957673 0.24304900669521046 0.11327659063216468 0.40094848994850996 0.06997178517617664 -1.5727608275611282
0.5247014253727628 0.143815275128323 -1.5436455845612036 -0.7328847355512201 -0.044303197336518885 0.010492909136183325 0.12484504995932093 -1.2207338869881272
0.016750144505595935 0.08239878513578808 -0.1965405637096457 0.3512753442927267 -0.273647456410935 -0.047731472200024716 -0.5703139574139031 0.24881543454615096
-0.25613471358196005 0.3417487027640961 -0.46884212968877353 -0.29937027982147485 -0.7267872735158781 -0.4233674473826361 -0.5566164581467614 0.3764755912286498
0.6710736699472456 -0.24600724697860565 0.20225625894668542 0.029783123758596763 -0.1568894643975034 0.4474945775070632 0.05988722054396214 0.32288379955915464
-0.7898044446504796 -0.8308641003535314 -1.0847296794203498 -0.2763295187970261 0.1593265581996016 -0.2501379168944412 -0.6300066027469384 -0.2945342260043035
0.0705925041708475 0.16872817545916807 0.660691258853216 -0.0601441259766502 -0.6334897973002958 -0.027347921972608717 -0.3166822424380982 -0.02701717854414855
0.5133845904745102 0.3657430770085181 -0.33830092644060206 0.037654529284913335 -0.5390267306072474 -0.35581406155962775 -0.012745990993879542 -0.0798219224831272
-0.23567962471187948 -2.4762909689935784 -0.7957399698900414 0.007531677445999509 0.21886964037588705 0.2947855590869208 -1.8001550673477547 0.40857542950997694
0.04336900422336741 0.13294418633642122 -0.4436692009487102 0.03887081712053973 0.8992214305800099 -0.6464311974736798 -0.022614113058386297 0.31910865414697537
-1.503914058559433 -0.1485216131131426 -0.2916665960617098 -2.420427220917749 0.6213131819503238 0.2739692080405652 -0.1569161976075128 -0.2919809333608592
-0.025063257990439958 -0.6357917841460271 0.3747479826058082 -0.05421472290071893 -0.13756837760670815 0.40252752320598445 -0.19750743085528844 -0.8123475885203058
0.5386840618148163 0.18391956073443233 -0.1547411579420192 -2.3807911096006817 0.19736277988950407 -0.40552566766461157 1.5446521306216743 0.12240107543205783
-0.2385749060833378 0.49383372105926826 0.7364862513817021 1.8699450996854812 -0.3183713355874167 -0.0779960007116491 0.9711843744144312 0.3610474862165024
-0.08845865504092121 -0.3813383193814503 -0.07710143489380338 1.501715381214488 0.3327446439850958 0.4458080757915401 0.5013651931133203 -0.21085025816422076
0.05677002361337655 0.39536421024634133 0.28063516131943056 -0.4390292464217711 0.2866418617804682 0.018969515305809592 0.349259726847175 -0.2419058343317127
-0.22663637028424788 -0.12246237566621976 0.08333331195249083 -0.13445115087785003 0.24199135676400735 0.08811000074057158 0.2763740452088748 -0.03502687751107686
0.7326368081530839 -0.07606028420739848 0.4486528545917605 -0.2950585808047325 0.7126846954614762 0.3919095948801018 0.7692205380541575 0.10734648854595859
-0.03511721847284109 -0.5474199684023145 0.457383567418603 -0.16178493205661515 -0.02753058019357435 -0.2084446406058376 0.0016188538663758764 -0.34631307485457485
-0.3224166441006704 0.5365224676834631 -0.17624574939154664 0.18977660978772262 -0.2632414147800298 -0.03614966461297453 0.3547750361246451 0.29061660778828563
0.01570900973657441 -0.2934308716732139 0.0793134898996349 -0.1304823444310489 0.12268421785819927 2.2316357635106963 1.33030347075292 -0.03940934229738692
-0.3999006907781304 -0.4879363487342914 1.9273679770411993 -0.22822768705907148 -0.2769300143833906 0.37218595371362273 0.906730171034221 0.3070416616462946
-1.0058362217055117 1.0895010772145757 -0.23950326143815015 -0.48086018891107996 0.8723397053264288 0.2779520126505606 0.2687251642587051 2.4142221154096983
-0.3012168502063607 -0.2560570561774937 -0.0914810184042639 0.27105400535082025 0.34116443867810664 0.5484545166944957 0.20127266740208816 -0.3049517548525695
0.3773643538214373 -0.08316654242830974 0.40493116439398325 1.2466101032708414 0.04606005867254454 -0.05655118320146481 0.3801918841651673 2.1799570156938697
00000000: 9c9e 8f09 e0fd d53f 51f6 47ec d8e2 dfbf
00000010: 8f52 292c aa34 01c0 3865 8ad7 3a1c cf3f
00000020: 11e3 2ad4 b1ff bc3f 6267 edda 23a9 d93f
00000030: 5873 f9c0 abe9 b13f 0ae1 ec41 072a f9bf
00000040: cd7f c4a4 5aca e03f a7b2 abf7 8968 c23f
00000050: fce1 64b6 c5b2 f8bf 5fc3 5db0 ca73 e7bf
00000060: 8050 569f e8ae a6bf d971 a36c 4e7d 853f
00000070: 8b8c a45e d8f5 bf3f 3bba 9b41 2088 f3bf
00000080: f452 6b2b f326 913f 4c6a 6337 1618 b53f
00000090: dd33 bcbe 3d28 c9bf bb37 e894 4b7b d63f
000000a0: 8cc9 fa9e 7083 d1bf 9096 2d70 4270 a8bf
000000b0: 0e71 710e 0340 e2bf ccd0 0e25 2fd9 cf3f
000000c0: 301c 8dda 8264 d0bf 369f 74f3 35df d53f
000000d0: 7904 806b 8201 debf 0d91 4ef6 e128 d3bf
000000e0: 5fca 5c62 d741 e7bf 58c3 2cc7 7318 dbbf
000000f0: 70fb 8451 cdcf e1bf aa6f 0414 2d18 d83f
00000100: ed29 347d 6f79 e53f d011 2d5c 2a7d cfbf
00000110: 582d cb78 88e3 c93f 7046 109a 777f 9e3f
00000120: 484d 5637 f414 c4bf 5dee e14b c0a3 dc3f
00000130: 538b 5eab 89a9 ae3f 4bf2 e0cf 20aa d43f
00000140: cb4b 80f8 1346 e9bf 4d0b 4e4f 7096 eabf
00000150: 85c6 2182 0d5b f1bf edc4 8901 62af d1bf
00000160: ebfe 6c0a d064 c43f b646 2377 4202 d0bf
00000170: 40fd 619b 0329 e4bf 1b6f 0f15 a6d9 d2bf
00000180: 30ac c1b0 5912 b23f 6864 c185 e298 c53f
00000190: 5fe2 b0fe 6124 e53f c080 3bfc 35cb aebf
000001a0: 5e24 3865 8c45 e4bf 8193 f1f9 1701 9cbf
000001b0: 81b7 9f98 8544 d4bf 64f7 1b29 64aa 9bbf
000001c0: ce77 4b85 a56d e03f 135c 9fa6 5568 d73f
000001d0: 7435 d1ed b8a6 d5bf 6463 a657 7447 a33f
000001e0: 0018 74fc b43f e1bf 09c1 7657 a8c5 d6bf
000001f0: cd63 caf3 911a 8abf 04a2 91a2 356f b4bf
00000200: 364c 3cfc bf2a cebf 1aa9 b9a3 71cf 03c0
00000210: 3087 59ab b376 e9bf 288e 0845 89d9 7e3f
00000220: 3b38 c09d eb03 cc3f 2f21 e73f c4dd d23f
00000230: eacb 5f66 6fcd fcbf c272 ec8e 1926 da3f
00000240: 5e51 994d 7634 a63f a30e 41aa 5004 c13f
00000250: 644c 1481 1365 dcbf 2e60 9a30 e0e6 a33f
00000260: e282 8605 6cc6 ec3f 306f 887a 90af e4bf
00000270: b325 0e70 2728 97bf 2ba3 5bb4 466c d43f
00000280: 491e 1830 0810 f8bf 70f9 8897 c102 c3bf
00000290: 85ec da5e aaaa d2bf ea84 61f2 085d 03c0
000002a0: 5f9c a12e cce1 e33f bd4b 2925 b688 d13f
000002b0: aeed 7778 d415 c4bf dcc9 f5cb d0af d2bf
000002c0: 00c1 99c5 2eaa 99bf 2d20 ff02 6858 e4bf
000002d0: cc2b 62f6 defb d73f 0ffd a33b 08c2 abbf
000002e0: 746d 6431 d79b c1bf a136 facc 02c3 d93f
000002f0: e8c6 1e6a ec47 c9bf d4bb b55e c0fe e9bf
00000300: e0df 8b5b e63c e13f 367b 3919 ad8a c73f
00000310: e662 5aea 8ece c3bf 66bd 9235 dc0b 03c0
00000320: 3e5a 89fe 2e43 c93f 71b7 13ee 21f4 d9bf
00000330: 0f78 0b27 e5b6 f83f bad5 f947 ad55 bf3f
00000340: 3a19 a35d 9f89 cebf 8823 67c0 f89a df3f
00000350: de6a 749d 4b91 e73f 026f 878d 4beb fd3f
00000360: 243c 952a 3260 d4bf bd7b 46c0 8bf7 b3bf
00000370: e1e0 cf40 f113 ef3f ba95 66ea 661b d73f
00000380: 40eb 72f6 39a5 b6bf 9b1d 9dd6 d867 d8bf
00000390: 77f3 576d ebbc b3bf 5f76 23b5 0607 f83f
000003a0: 1773 f530 b04b d53f 874f 7498 1e88 dc3f
000003b0: 2cc8 7804 2f0b e03f ec90 9529 24fd cabf
000003c0: 1c0d a0e5 f510 ad3f f514 41b0 a54d d93f
000003d0: 7a60 fe2d edf5 d13f 389e d71f 0e19 dcbf
000003e0: 17bf 801b 5758 d23f c00c 709f be6c 933f
000003f0: aa95 2778 455a d63f 5249 9537 c5f6 cebf
00000400: 243d 3aab 6b02 cdbf d014 7aba b159 bfbf
00000410: 30d9 80f9 5455 b53f de07 f7ff b135 c1bf
00000420: 82a8 9ba1 92f9 ce3f 459c a183 608e b63f
00000430: 75a9 68c3 1cb0 d13f b83a c8fa 0aef a1bf
00000440: 54a0 5bbf c271 e73f 5dfb 31d1 af78 b3bf
00000450: 48a2 6e76 bab6 dc3f d378 bd62 3de2 d2bf
00000460: 7fbc 6b22 50ce e63f d2e9 3ffb 0b15 d93f
00000470: 0855 cb63 749d e83f 6534 a539 0f7b bb3f
00000480: ee13 bc51 e2fa a1bf b1e3 aee1 7684 e1bf
00000490: 029b f2b9 c545 dd3f 6899 1560 5eb5 c4bf
000004a0: c004 49f6 f930 9cbf 99da 3661 50ae cabf
000004b0: bc06 701a f785 5a3f c85d ab50 fe29 d6bf
000004c0: 044d 866b 79a2 d4bf 4fa1 882a 312b e13f
000004d0: da0c d980 388f c6bf 3dc1 4a96 994a c83f
000004e0: 42b6 db84 f2d8 d0bf 1056 8c76 3582 a2bf
000004f0: a8ec 655a a2b4 d63f 6302 8866 7699 d23f
00000500: 00d7 48cc 0516 903f 5849 5e47 92c7 d2bf
00000510: 9524 408d e34d b43f a4b4 043d a5b3 c0bf
00000520: b0b1 6f9f 3b68 bf3f 42e6 e6d9 63da 0140
00000530: b039 ca4a ec48 f53f 82f6 a518 762d a4bf
00000540: 608d 2211 f997 d9bf cdfa 1561 593a dfbf
00000550: 7cfe cbcd 7fd6 fe3f 84ef fa99 9036 cdbf
00000560: a0ad c3aa 38b9 d1bf d0c1 ce08 e5d1 d73f
00000570: 506e dcfd ee03 ed3f f9f0 d111 92a6 d33f
00000580: d2b7 d5b8 e717 f0bf 757e 79ae 986e f13f
00000590: bcc2 94f9 0aa8 cebf f892 54d0 69c6 debf
000005a0: 2223 2cf5 34ea eb3f 2042 0c3d f7c9 d13f
000005b0: 8e9d 0608 cb32 d13f 7cb7 37af 5350 0340
000005c0: 22fd 280a 2347 d3bf cb4f 8c22 3d63 d0bf
000005d0: 4647 40ce 4c6b b7bf 0a9f 1be6 f258 d13f
000005e0: 0690 ab5e a3d5 d53f a97b 917c f08c e13f
000005f0: 300b 0982 4dc3 c93f 2bc6 7c5d 5484 d3bf
00000600: 34b6 95d1 bc26 d83f 45da d90b 674a b5bf
00000610: d003 0d67 64ea d93f 4995 866f 1df2 f33f
00000620: d903 4d1b 2f95 a73f b200 cdd4 46f4 acbf
00000630: b96a 2c57 1055 d83f 39ba c84d 8d70 0140
