resources/model_weights.npy (npy, 800128 bytes, 1 tensors)

array f8 [10, 10000]
00000000: d812 e2ae 7332 cdbf 4e80 fbec 548b dabf
00000010: 38b0 ad58 e213 cabf 28be 3880 28de bb3f
00000020: ca96 ad5e 0271 d53f 1c90 40ce e99c df3f
00000030: 2c35 ac6b f46a c0bf 4438 1dd8 84c5 c3bf
00000040: d005 a27c b3c1 bb3f 908e 5181 74ec ccbf
00000050: 5225 b729 d092 d8bf 0895 7858 c54b c73f
00000060: 10c3 c5db 2143 ca3f 8c66 b318 43de d0bf
00000070: ca49 c398 3386 d0bf 20ac f8de 91a0 c73f
00000080: a087 3af6 38fc bc3f a6c4 bdfd 6d46 dbbf
00000090: 1a15 981f 682f d3bf c8fa fe6c bb16 c43f
000000a0: 38b3 4183 6761 b83f 1011 c650 0139 b03f
000000b0: 8031 a844 5e57 92bf b050 8871 311a c23f
000000c0: ec87 40db 31f8 d0bf 4af1 60c1 5808 d93f
000000d0: de19 bedd a71d d9bf b65b 8839 72dc ddbf
000000e0: 9c6a 6114 a739 de3f 7062 086f 59f6 a7bf
000000f0: f8fc c912 99ee b4bf 34e7 7dfa f17a c23f
00000100: 8052 92c8 d8d3 86bf 9083 475c 8730 b73f
00000110: 18d2 472b dfa2 dd3f 7018 eaab f203 a13f
00000120: ec01 f5c0 1f35 c83f 0036 e8b2 989e ba3f
00000130: 603b c80d 9652 d5bf c0ca c1e4 1265 ce3f
00000140: 7a31 1d22 2c26 dfbf 5844 a2f6 97a1 bfbf
00000150: 1896 9cfb 6707 b93f 700b fa0f 10c7 c73f
00000160: 9e64 3f9c 47c3 d43f 60af 7b7a 1d2d cabf
00000170: 404a 6800 1cc0 b03f 3483 a914 8337 c53f
00000180: 1856 4d66 4652 c7bf 50ee 889e a6f1 b9bf
00000190: cccb 1d91 dbbd c4bf 7a0d 49f2 9d92 d43f
000001a0: a4d2 2e21 1527 c33f 30eb 4a27 74fa c93f
000001b0: e0ef 3e08 460e bf3f 6a8f 4f7f a903 ddbf
000001c0: ae3a 5b47 e569 dabf a044 2897 1f87 d7bf
000001d0: 0031 5619 4929 9cbf 8094 a0b9 1f5d 9abf
000001e0: 08c8 1bf9 df11 bfbf 4c6a 042d f23c cbbf
000001f0: e02b 6327 5128 bbbf 8c2b 92bd 2a90 d3bf
00000200: 58f9 c4db 0f30 b5bf 20df 998e 0206 c53f
00000210: 5449 9e31 4d50 dabf 6067 b605 80aa cdbf
00000220: 58fb 90e1 8e03 b8bf 28f3 dc3f 5357 ddbf
00000230: 6067 6fef 1bf7 9abf 5a51 eaf3 eca8 d73f
00000240: 4891 d686 f22c cbbf 108a 78e2 7b19 a8bf
00000250: a8e1 3538 cd8e dc3f 481c 00e1 b22c b6bf
00000260: 889f c4fa f7a9 b73f 4058 d541 44d8 c33f
00000270: 00ec ae0e 7b03 b93f f417 6467 0760 d7bf
00000280: 7095 ac3d 1a54 b73f 00e4 aca9 060b 543f
00000290: 563d 4c1a c3ec d0bf 6054 c913 f499 debf
000002a0: ccb3 ac30 7b45 dcbf d066 73c8 a897 c43f
000002b0: 8ecb 65f0 0222 d53f 8ac3 6ae5 8a3a d1bf
000002c0: 4eb8 ceee 271e de3f 60bf cf2e d772 cf3f
000002d0: 04c4 ba44 5cf0 cbbf c467 e662 c59d dcbf
000002e0: 5a42 c6ee 9f8a df3f 0888 ccef 09c2 ce3f
000002f0: f0e9 5b69 0d62 b6bf 7ea4 421f 14e1 dfbf
00000300: 004e ac59 38de c6bf 44aa 3f33 1746 cfbf
00000310: 58c8 a28c 0786 b6bf 584e e530 28cf d13f
00000320: b81f 3fed f8c0 bbbf c6ad 33d6 7cd7 db3f
00000330: 4819 1a4d 5c63 cdbf 9e69 222a c934 df3f
00000340: 000c b081 3c1e 653f 3ce9 2cf0 5fa8 c33f
00000350: 00ed 25cb 47b0 9f3f b871 7130 c4a8 ca3f
00000360: e270 5f31 6a36 debf 6cce c495 752d d43f
00000370: 06dd ce0e 3047 dbbf 8ca0 78b7 49b0 c9bf
00000380: e06c 4667 d381 9e3f b68b e056 0307 d83f
00000390: fc72 de7d b148 c8bf 6c42 1f00 faf5 ca3f
000003a0: 2446 0aef 5470 dbbf 1478 d120 ffaa cc3f
000003b0: 8a74 03ab d799 dfbf 6c7a 5c78 650f d6bf
000003c0: 5201 a24b fc89 d43f 4858 cfb4 74e9 bf3f
000003d0: 7038 1505 0c27 d43f 04fc 7436 2771 ddbf
000003e0: d0b0 d635 ba08 a3bf 80ec 18ab 5115 abbf
000003f0: 7682 e521 ed95 d1bf 00c0 5c4e f94b 723f
00000400: 84b0 ac83 0131 c3bf e8b7 c414 b656 b43f
00000410: 0887 67cd 26e2 d53f 144f 3791 3123 de3f
00000420: 707b bde3 53b5 d83f 103e a90f dfa9 afbf
00000430: 808c 261a 147b 9fbf ea2f 3352 c5b3 d03f
00000440: 1c4f 1364 11b2 da3f d476 9ab9 87b7 d03f
00000450: 3c5d 3b80 e379 c23f a852 85b9 1d3c c9bf
00000460: f843 fe53 f520 c43f 207a da0e 1940 b7bf
00000470: f2ba 21c2 82a5 d1bf a04a 388b 9be8 d13f
00000480: ea81 ca98 233a de3f f056 d436 45a6 c93f
00000490: 0c9b d054 ac29 cbbf 60be facb 68e4 a2bf
000004a0: 1002 591d fd74 bebf 2a86 eec1 d403 dfbf
000004b0: f0a0 be06 052e d23f a841 5a43 f9ce d9bf
000004c0: b00a 9caf c871 d03f 001a 96a2 a6a4 a6bf
000004d0: cc64 9eaf 0802 c73f ac21 1ef6 89c0 d53f
000004e0: b832 9a47 6cbb d3bf 648c 3233 793a d33f
000004f0: f030 e22f 5465 d73f 808b 5381 0112 9a3f
00000500: fc44 ac33 e583 df3f d649 a409 d864 d03f
00000510: c4c4 6a71 bad9 c63f dcc8 6875 18a7 c03f
00000520: 005a fdbe 8cca 633f 603a 3eb9 4156 933f
00000530: a008 75b5 a334 9d3f d21d 2365 81b6 dbbf
00000540: 405d a78f 440d c5bf c606 56b9 5826 d13f
00000550: bc38 27c7 6d93 d23f f635 3af5 2745 d9bf
00000560: fc33 de9b 41cd c6bf a0d8 0a4b 8638 dc3f
00000570: de30 90e6 39c0 d7bf 6c0b 73b3 1965 db3f
00000580: 244f e697 5e05 ddbf 58b3 aaa4 e75b b0bf
00000590: fca8 174c d454 d1bf 4884 e2c4 4d18 de3f
000005a0: 86e3 e68f 5d8d d13f a66c d39e b721 d8bf
000005b0: f06b 8a84 33b3 d23f 9831 69b5 2c9e ddbf
000005c0: b2f5 edd5 01b5 ddbf 082e 7c71 0959 cfbf
000005d0: 6a29 9121 0b64 dfbf c8d4 7646 0271 d13f
000005e0: 10ef 4668 3847 bd3f 4841 fc3e 8d81 b4bf
000005f0: 9c9d 4c3f 5074 d33f 901b 2ca1 e963 c8bf
00000600: c41f bf86 36ad c13f fc56 ab54 da46 c93f
00000610: fc92 ad1b d79e c0bf 1a3a 83fa 79b2 d43f
00000620: a8c7 f61b 4dd0 d5bf 446e 0b69 cdbc cebf
00000630: 649d 9f2e 011d c3bf e000 eb09 bc57 b63f
00000640: 3832 215f 0c8a dbbf 4685 1822 6458 dfbf
00000650: 1088 cb05 ed77 a93f a0b6 0cc9 eb01 a93f
00000660: 10ef ac48 df0c c4bf e0c8 881e 294f dfbf
00000670: c097 4cf9 a013 abbf 4e83 b1da 58ad db3f
00000680: 68bb 78fe 3285 dcbf ae3e 7fc8 093a d73f
00000690: b0c8 e57b 0580 d0bf c403 cc5d 3416 cb3f
000006a0: 3862 4525 18e6 c4bf 3239 bc45 069c de3f
000006b0: 306f e300 861a adbf 6603 a6ea f7af db3f
000006c0: 9e4c 02c0 f156 d33f 6287 7682 c3b0 d63f
000006d0: d40e 74cb fa97 ca3f fc42 9b69 bd4c cf3f
000006e0: 8acf 5f4c eebe d0bf 6ccd 869f 9647 d53f
000006f0: 0083 abda 034e 9abf 986a b80b 69e6 babf
00000700: 000e e06d fba9 56bf 663e cb39 aec3 dabf
00000710: 0eaf 49a3 e679 df3f cabe 9e73 68f6 debf
00000720: 74be 242c 987d cfbf 2021 7b53 36b9 d53f
00000730: 70a2 d4b7 812d c6bf c8a2 ad33 ac86 de3f
00000740: f4a1 7856 e0a9 dbbf 280b 4cf4 756d ddbf
00000750: 8090 a924 f401 dcbf 8aca 1cd9 bfb2 d5bf
00000760: 1098 8ca4 d469 a0bf 58b7 7a0a 4354 c43f
00000770: e8d8 1f7e 3c66 bb3f 3617 86dd e443 dcbf
00000780: 74ca 3c53 d742 c0bf 6c9c b8f7 c114 c03f
00000790: 601e ff9b aa48 92bf 304b 0ca9 89b6 a63f
000007a0: 42f6 545a bcea d43f 408a 2b61 feae bebf
000007b0: 685d d20c 2248 c7bf c289 e377 f86c d63f
000007c0: f02c 0257 2321 c83f 38c2 d5d6 2d48 c23f
000007d0: 004e 1053 06f1 5b3f dabd 139a d9d8 da3f
000007e0: a052 0d6d 5d91 d7bf e044 bef4 e19c df3f
000007f0: 80b2 bf9c 7394 983f 5a93 5870 772a d13f
-0.22810216941083783 -0.41475413458647814 -0.20373181657794404 0.10885861521159568 0.3350225376692434 0.4939522279912596 -0.12826400048690212 -0.15446529915283425
0.1084243945388359 -0.22596603693374506 -0.38396076272745916 0.18199984378694745 0.205173713980479 -0.2635658017366971 -0.25819101255652 0.18458770167612304
0.11322361003342829 -0.426173684877606 -0.299768477300249 0.15694372961112024 0.09523627237804255 0.06336982938779934 -0.01791140836762528 0.14142435115411933
-0.265148605454782 0.3911344421828927 -0.3924350419478325 -0.46657996767447274 0.4722688387898104 -0.04680137138729357 -0.08176571568218438 0.14437699061437004
-0.01114625322433338 0.09058423998750542 0.46306590296379246 0.033233245359085894 0.1891212169812343 0.10398249023293005 -0.33316565843499824 0.237459527681116
-0.4867048581261525 -0.12355947276434287 0.09776925938475534 0.18576241283525574 0.32441892870481037 -0.20450180512068084 0.06543135652490495 0.16575659283537336
-0.18219833369464378 -0.10134354944687485 -0.16204399667512204 0.32144879017524597 0.14963020439394825 0.20295574110590442 0.1213115472918953 -0.4533485167760235
-0.412713355716657 -0.3676222778459053 -0.027501241847446956 -0.025745864586629086 -0.12136649924994469 -0.21279742429836046 -0.10608393870931776 -0.3056742526320526
-0.0827646171137294 0.16424591029112268 -0.4111512169412397 -0.23176574973040953 -0.09380429274550062 -0.4584549068129484 -0.02633327149292286 0.3696854001984967
-0.2123091848744798 -0.0470694269136126 0.44621592034629964 -0.08661954873251532 0.09243726608531067 0.15503743376274493 0.0977093611572144 -0.36523614022041717
0.09112705236164742 0.0012233319345809068 -0.26445081298966977 -0.4781465714671125 -0.4417407965982505 0.1608782747996913 0.33020089603740466 -0.26919815448769013
0.4705905754189005 0.24569215570181324 -0.218272718009331 -0.44712958009915504 0.4928359824926126 0.24029659470494402 -0.0874336607193198 -0.498112707641276
-0.17865661982123981 -0.24432649614694146 -0.08798262771122844 0.2782688596246081 -0.1084132746901777 0.43502732198859595 -0.22959474339240615 0.48759678950013974
0.002577894379557133 0.15357588984790904 0.030945894025973253 0.20827534070384757 -0.47207121678890307 0.3152746164880458 -0.4262199539766275 -0.20069238146357227
0.02979212110367946 0.3754280422601214 -0.18971842428154406 0.21063160901987332 -0.4287311872841164 0.22396840193226863 -0.49376479816948715 -0.344689719715382
0.320921968326748 0.12465600408845134 0.31488323685051167 -0.4600313216978409 -0.03717595965585618 -0.05289702619162373 -0.27477577505309314 0.004466985561336401
-0.14993304185316358 0.07944810874025132 0.3419281965162644 0.4708980482221119 0.386067364122872 -0.06184289041686608 -0.030742944809059924 0.26097233798350195
0.417118404130848 0.2612017929585424 0.14434474717448065 -0.19714709814674802 0.15725580788833304 -0.09082180607445212 -0.27572697599582263 0.2798222407883859
0.4722985260105178 0.200386668941682 -0.21220926419592734 -0.03689887514098866 -0.1189726063394192 -0.484608830820522 0.284058815561834 -0.4032576711406599
0.25694481992119744 -0.04422493681618178 0.17974957060940822 0.33987664256030814 -0.30831439011016526 0.3004439353919166 0.3655596225369342 0.025459311979726618
0.49242525144752824 0.2561550230176669 0.1785195401949179 0.13009935124279692 0.0024159192034105548 0.018883730822887634 0.028521116209284103 -0.43301424862553717
-0.16446740164131235 0.2679654893800997 0.29024834106975184 -0.39484595249163534 -0.17813892470113035 0.4409499867282509 -0.37110755458776434 0.4280456783709983
-0.4534527285952541 -0.06390235681710743 -0.2708025687303601 0.4702333853438785 0.27425326397820304 -0.3770579386743499 0.292187575754439 -0.462779214057059
-0.46417280093723 -0.24490469018233818 -0.49048116949111054 0.27252251511829373 0.11436798616244581 -0.08010180270890033 0.3039742105633765 -0.19054909105053897
0.13809854106352593 0.19747475752108545 -0.12984742022958773 0.32339333976861584 -0.3408386967740804 -0.24013679150708545 -0.1493226506856714 0.08727622263086543
-0.43030080118186076 -0.4897699673620831 0.04974308677425665 0.04884278134555342 -0.15664282845124733 -0.4892065809427901 -0.05288413088992128 0.4324552665403204
-0.4456298337053597 0.3629173715571409 -0.2578138074815213 0.21161512927940695 -0.163271921347375 0.47827297983248507 -0.05684298287243761 0.4326152602662233
0.30218166113736256 0.3545388006260649 0.20776305135961215 0.24452941567007958 -0.26165349443839914 0.332494407451313 -0.02568822881846966 -0.10507828270093922
-0.0013833003390580911 -0.41819339412629686 0.49181524225308315 -0.48378955164933457 -0.24602033763357023 0.3394294562572373 -0.17326375461677257 0.47696976706224037
-0.4322434277005691 -0.459805954524358 -0.43761924343403535 -0.33903499796284875 -0.03205742367417497 0.15882146846473222 0.10702875212868757 -0.44164392121489315
-0.12703982891396814 0.12563347430952676 -0.01785532548072266 0.04436140240263453 0.32682713338349256 -0.11985769150081982 -0.18188882471143164 0.3504010363377824
0.18851129291974855 0.14282773008337002 0.0017054139864328688 0.4194854740771611 -0.368247372146735 0.4939503564902008 0.024003797952831807 0.26821695300377757
